…
07/13/2025 10:11:24 - INFO - __main__ -   Num Epochs = 20
07/13/2025 10:11:24 - INFO - __main__ -   Instantaneous batch size per device = 4
07/13/2025 10:11:24 - INFO - __main__ -   Total train batch size (w. parallel, distributed & accumulation) = 4
07/13/2025 10:11:24 - INFO - __main__ -   Gradient Accumulation steps = 1
07/13/2025 10:11:24 - INFO - __main__ -   Total optimization steps = 2000000
  0%|                                                                                     | 0/2000000 [00:00<?, ?it/s]
model is:  DistributedDataParallel(
  (module): GPT(
    (transformer): ModuleDict(
      (wte): Embedding(1024, 1024)
      (wpe): Embedding(576, 1024)
      (drop): Dropout(p=0.0, inplace=False)
      (h): ModuleList(
        (0-7): 8 x Block(
          (ln_1): LayerNorm()
          (attn): CausalSelfAttention(
            (c_attn): Linear(in_features=1024, out_features=3072, bias=False)
            (c_proj): Linear(in_features=1024, out_features=1024, bias=False)
            (attn_dropout): Dropout(p=0.0, inplace=False)
            (resid_dropout): Dropout(p=0.0, inplace=False)
          )
          (ln_2): LayerNorm()
          (mlp): MLP(
            (c_fc): Linear(in_features=1024, out_features=4096, bias=False)
            (gelu): GELU(approximate='none')
            (c_proj): Linear(in_features=4096, out_features=1024, bias=False)
            (dropout): Dropout(p=0.0, inplace=False)
          )
        )
      )
      (ln_f): LayerNorm()
    )
    (lm_head): Linear(in_features=1024, out_features=1024, bias=False)
  )
)
Number of parameters in the model: 102319104
special token False
h shape torch.Size([36, 128, 8, 8])
entered no special token block
indices shape inside tokenizer torch.Size([4, 576])
labels shape inside tokenizer torch.Size([4, 576])
validation:   3%|██                                                                   | 3/100 [00:01<00:38,  2.55it/s]
…
